Model: "sequential"
_________________________________________________________________
 Layer (type)                Output Shape              Param #   
=================================================================
 batch_normalization (BatchN  (None, 32, 32, 3)        12        
 ormalization)                                                   
                                                                 
 conv2d (Conv2D)             (None, 32, 32, 80)        11840     
                                                                 
 dropout (Dropout)           (None, 32, 32, 80)        0         
                                                                 
 max_pooling2d (MaxPooling2D  (None, 16, 16, 80)       0         
 )                                                               
                                                                 
 conv2d_1 (Conv2D)           (None, 16, 16, 100)       72100     
                                                                 
 dropout_1 (Dropout)         (None, 16, 16, 100)       0         
                                                                 
 max_pooling2d_1 (MaxPooling  (None, 8, 8, 100)        0         
 2D)                                                             
                                                                 
 flatten (Flatten)           (None, 6400)              0         
                                                                 
 dense (Dense)               (None, 50)                320050    
                                                                 
 dropout_2 (Dropout)         (None, 50)                0         
                                                                 
 dense_1 (Dense)             (None, 10)                510       
                                                                 
=================================================================
Total params: 404,512
Trainable params: 404,506
Non-trainable params: 6
_________________________________________________________________
Epoch 1/30
1563/1563 [==============================] - 126s 81ms/step - loss: 1.6481 - sparse_categorical_accuracy: 0.4005 - val_loss: 1.4291 - val_sparse_categorical_accuracy: 0.5276
…
