Model: "sequential"
_________________________________________________________________
 Layer (type)                Output Shape              Param #   
=================================================================
 batch_normalization (BatchN  (None, 32, 32, 3)        12        
 ormalization)                                                   
                                                                 
 conv2d (Conv2D)             (None, 32, 32, 16)        448       
                                                                 
 dropout (Dropout)           (None, 32, 32, 16)        0         
                                                                 
 max_pooling2d (MaxPooling2D  (None, 16, 16, 16)       0         
 )                                                               
                                                                 
 flatten (Flatten)           (None, 4096)              0         
                                                                 
 dense (Dense)               (None, 32)                131104    
                                                                 
 dropout_1 (Dropout)         (None, 32)                0         
                                                                 
 dense_1 (Dense)             (None, 10)                330       
                                                                 
=================================================================
Total params: 131,894
Trainable params: 131,888
Non-trainable params: 6
_________________________________________________________________
Epoch 1/30
1563/1563 [==============================] - 24s 15ms/step - loss: 2.0251 - sparse_categorical_accuracy: 0.1969 - val_loss: 1.7684 - val_sparse_categorical_accuracy: 0.3169
…
