Model: "sequential"
_________________________________________________________________
 Layer (type)                Output Shape              Param #   
=================================================================
 batch_normalization (BatchN  (None, 32, 32, 3)        12        
 ormalization)                                                   
                                                                 
 conv2d (Conv2D)             (None, 32, 32, 16)        448       
                                                                 
 dropout (Dropout)           (None, 32, 32, 16)        0         
                                                                 
 max_pooling2d (MaxPooling2D  (None, 16, 16, 16)       0         
 )                                                               
                                                                 
 conv2d_1 (Conv2D)           (None, 16, 16, 32)        4640      
                                                                 
 dropout_1 (Dropout)         (None, 16, 16, 32)        0         
                                                                 
 max_pooling2d_1 (MaxPooling  (None, 8, 8, 32)         0         
 2D)                                                             
                                                                 
 flatten (Flatten)           (None, 2048)              0         
                                                                 
 dense (Dense)               (None, 32)                65568     
                                                                 
 dropout_2 (Dropout)         (None, 32)                0         
                                                                 
 dense_1 (Dense)             (None, 16)                528       
                                                                 
 dropout_3 (Dropout)         (None, 16)                0         
                                                                 
 dense_2 (Dense)             (None, 10)                170       
                                                                 
=================================================================
Total params: 71,366
Trainable params: 71,360
Non-trainable params: 6
_________________________________________________________________
Epoch 1/30
1563/1563 [==============================] - 35s 22ms/step - loss: 1.9160 - sparse_categorical_accuracy: 0.2681 - val_loss: 1.6148 - val_sparse_categorical_accuracy: 0.4388
…
