Model: "sequential"
_________________________________________________________________
 Layer (type)                Output Shape              Param #   
=================================================================
 batch_normalization (BatchN  (None, 32, 32, 3)        12        
 ormalization)                                                   
                                                                 
 conv2d (Conv2D)             (None, 32, 32, 32)        896       
                                                                 
 dropout (Dropout)           (None, 32, 32, 32)        0         
                                                                 
 max_pooling2d (MaxPooling2D  (None, 16, 16, 32)       0         
 )                                                               
                                                                 
 conv2d_1 (Conv2D)           (None, 16, 16, 64)        18496     
                                                                 
 dropout_1 (Dropout)         (None, 16, 16, 64)        0         
                                                                 
 max_pooling2d_1 (MaxPooling  (None, 8, 8, 64)         0         
 2D)                                                             
                                                                 
 conv2d_2 (Conv2D)           (None, 8, 8, 128)         73856     
                                                                 
 dropout_2 (Dropout)         (None, 8, 8, 128)         0         
                                                                 
 max_pooling2d_2 (MaxPooling  (None, 4, 4, 128)        0         
 2D)                                                             
                                                                 
 flatten (Flatten)           (None, 2048)              0         
                                                                 
 dense (Dense)               (None, 128)               262272    
                                                                 
 dropout_3 (Dropout)         (None, 128)               0         
                                                                 
 dense_1 (Dense)             (None, 10)                1290      
                                                                 
=================================================================
Total params: 356,822
Trainable params: 356,816
Non-trainable params: 6
_________________________________________________________________
Epoch 1/30
1563/1563 [==============================] - 74s 47ms/step - loss: 1.5448 - sparse_categorical_accuracy: 0.4410 - val_loss: 1.3482 - val_sparse_categorical_accuracy: 0.5970
…
