Model: "sequential"
_________________________________________________________________
 Layer (type)                Output Shape              Param #   
=================================================================
 batch_normalization (BatchN  (None, 32, 32, 3)        12        
 ormalization)                                                   
                                                                 
 Input_layer (Flatten)       (None, 3072)              0         
                                                                 
 Hidden_layer_1 (Dense)      (None, 25)                76825     
                                                                 
 dropout (Dropout)           (None, 25)                0         
                                                                 
 Hidden_layer_2 (Dense)      (None, 25)                650       
                                                                 
 dropout_1 (Dropout)         (None, 25)                0         
                                                                 
 Output_layer (Dense)        (None, 10)                260       
                                                                 
=================================================================
Total params: 77,747
Trainable params: 77,741
Non-trainable params: 6
_________________________________________________________________
Epoch 1/10
1563/1563 [==============================] - 6s 4ms/step - loss: 2.0450 - sparse_categorical_accuracy: 0.2385 - val_loss: 1.8932 - val_sparse_categorical_accuracy: 0.3384
…
