Model: "sequential"
_________________________________________________________________
 Layer (type)                Output Shape              Param #   
=================================================================
 batch_normalization (BatchN  (None, 32, 32, 3)        12        
 ormalization)                                                   
                                                                 
 Input_layer (Flatten)       (None, 3072)              0         
                                                                 
 Hidden_layer_1 (Dense)      (None, 75)                230475    
                                                                 
 dropout (Dropout)           (None, 75)                0         
                                                                 
 Hidden_layer_2 (Dense)      (None, 75)                5700      
                                                                 
 dropout_1 (Dropout)         (None, 75)                0         
                                                                 
 Output_layer (Dense)        (None, 10)                760       
                                                                 
=================================================================
Total params: 236,947
Trainable params: 236,941
Non-trainable params: 6
_________________________________________________________________
Epoch 1/10
1563/1563 [==============================] - 8s 5ms/step - loss: 1.9378 - sparse_categorical_accuracy: 0.3025 - val_loss: 1.7529 - val_sparse_categorical_accuracy: 0.3811
…
