Model: "sequential"
_________________________________________________________________
 Layer (type)                Output Shape              Param #   
=================================================================
 batch_normalization (BatchN  (None, 32, 32, 3)        12        
 ormalization)                                                   
                                                                 
 conv2d (Conv2D)             (None, 32, 32, 65)        12545     
                                                                 
 dropout (Dropout)           (None, 32, 32, 65)        0         
                                                                 
 max_pooling2d (MaxPooling2D  (None, 16, 16, 65)       0         
 )                                                               
                                                                 
 conv2d_1 (Conv2D)           (None, 16, 16, 50)        52050     
                                                                 
 dropout_1 (Dropout)         (None, 16, 16, 50)        0         
                                                                 
 max_pooling2d_1 (MaxPooling  (None, 8, 8, 50)         0         
 2D)                                                             
                                                                 
 flatten (Flatten)           (None, 3200)              0         
                                                                 
 dense (Dense)               (None, 32)                102432    
                                                                 
 dropout_2 (Dropout)         (None, 32)                0         
                                                                 
 dense_1 (Dense)             (None, 10)                330       
                                                                 
=================================================================
Total params: 167,369
Trainable params: 167,363
Non-trainable params: 6
_________________________________________________________________
Epoch 1/30
1563/1563 [==============================] - 122s 78ms/step - loss: 1.6782 - sparse_categorical_accuracy: 0.3898 - val_loss: 1.3823 - val_sparse_categorical_accuracy: 0.5215
…
