Model: "sequential"
_________________________________________________________________
 Layer (type)                Output Shape              Param #   
=================================================================
 batch_normalization (BatchN  (None, 32, 32, 3)        12        
 ormalization)                                                   
                                                                 
 Input_layer (Flatten)       (None, 3072)              0         
                                                                 
 Hidden_layer_1 (Dense)      (None, 50)                153650    
                                                                 
 dropout (Dropout)           (None, 50)                0         
                                                                 
 Hidden_layer_2 (Dense)      (None, 50)                2550      
                                                                 
 dropout_1 (Dropout)         (None, 50)                0         
                                                                 
 Output_layer (Dense)        (None, 10)                510       
                                                                 
=================================================================
Total params: 156,722
Trainable params: 156,716
Non-trainable params: 6
_________________________________________________________________
Epoch 1/10
1563/1563 [==============================] - 7s 4ms/step - loss: 1.9765 - sparse_categorical_accuracy: 0.2801 - val_loss: 1.8030 - val_sparse_categorical_accuracy: 0.3641
…
